WineQuality/NN/DLnet_WineData.onnx (onnx, 1903 bytes, 5 tensors)

linear1.weight f4 [10, 11]
000000 50 49 a0 3e 99 45 cc 3c b8 b1 b0 be 00 2d a2 3d
       0.31305933 0.02493553 -0.3451059 0.07918739
000010 09 9d 2b 3d 0d 25 0a 3e 04 49 99 bd 7a 13 d8 3b
       0.041897807 0.13490696 -0.0748463 0.0065941187
000020 11 56 b6 3d ed 9b 9b 3e 26 22 43 3d 68 61 6d 3e
       0.089031346 0.303924 0.04763999 0.23181689
000030 80 83 58 be 2b d3 7c bd 59 3b 18 3e 7f 63 ba be
       -0.21143913 -0.061724823 0.1486639 -0.36404034
000040 db 62 77 3b b5 c0 70 bd 79 37 64 be 1f 79 6a 3d
       0.0037748131 -0.05877753 -0.22286786 0.057244416
000050 8a f4 0a 3e 85 b7 c6 3d e8 2f 58 3d b4 12 f3 3c
       0.13569847 0.09702972 0.052780062 0.029672004
000060 85 ad 7b bd 4b 45 9f 3e c1 e4 27 3d c5 29 27 3c
       -0.061444778 0.31107554 0.04098964 0.01020283
000070 b2 95 a0 3e 2c 90 9a bd b0 e8 89 bd ee d6 e5 bd
       0.31364208 -0.0754703 -0.06733835 -0.11222635
000080 e6 4f f9 3e 54 6b 8b 3e 03 26 3d bc c0 34 e4 3d
       0.4869377 0.27230322 -0.011544707 0.11142874
000090 49 47 00 bf c6 5e 2f be d5 ba 55 bf f7 f3 b2 be
       -0.5010877 -0.17125997 -0.8348821 -0.34951755
0000a0 70 aa 5d 3e 8e 74 33 be 12 89 5c 3d f3 76 82 3e
       0.21647048 -0.17524931 0.053841658 0.25481376
0000b0 2f 0f 4d 3d 6f 79 92 3d c4 97 ca 3e 5a ab 4c bc
       0.05006331 0.07152068 0.39568913 -0.012492025
0000c0 bc 81 11 3d 18 0f 07 bd 58 66 0c 3f 16 b5 9a 3e
       0.035524115 -0.03297338 0.54843664 0.30216283
0000d0 d9 7d 73 be 4a 4b 31 3e fc 4f 8e be 15 ca c5 be
       -0.23778476 0.17313877 -0.27795398 -0.3863074
0000e0 78 67 16 3e 12 2b 77 be 44 25 85 be c7 8f 1a 3d
       0.14687908 -0.24137524 -0.26004994 0.037734773
0000f0 76 34 aa 3c 48 88 63 bc 68 ed 3e 3e 13 09 9f 3e
       0.020776968 -0.013887472 0.18645251 0.3106161
000100 bb 4b 62 be b1 27 08 be d6 23 77 bc 2d b2 87 bf
       -0.22099201 -0.13296391 -0.015084228 -1.060125
000110 7e b3 1e bd c0 3a d9 3d b0 d5 40 3e 38 20 cb 3c
       -0.038745396 0.10606909 0.18831515 0.024795637
000120 30 e5 0f 3e 1c 6d 80 bd 59 69 a1 be fa 9b 02 3e
       0.14052272 -0.06270811 -0.31525686 0.12754813
000130 c6 2d 87 be 90 ae 69 3d 8a ff 97 bc a9 ab 2b 3e
       -0.2640211 0.05705124 -0.018554468 0.16764702
000140 66 2c e6 3d 59 81 8d bd 71 7b a4 bd 8c 97 0d be
       0.11238937 -0.06909437 -0.08031357 -0.13827342
000150 7a f8 e8 be e2 a5 78 3e cb 17 60 3e 8a c7 f4 3d
       -0.45502073 0.2428203 0.21884076 0.119521216
000160 38 62 5a 3e 0d d6 b5 bd 00 b2 df bc c1 2d cb bc
       0.2132653 -0.088787176 -0.027306557 -0.02480209
000170 a9 4b 3e be a0 5a 00 bf ad 42 20 3e f7 79 c9 bd
       -0.1858355 -0.5013828 0.15650435 -0.09837716
000180 1e a6 69 39 f2 79 3c be a2 95 b1 be 08 30 16 3d
       0.00022282495 -0.18405893 -0.34684473 0.0366669
000190 a7 1e 01 3e 5f e7 30 3d 10 7c 79 3e 83 e1 e4 be
       0.12609349 0.043189403 0.24363732 -0.44703302
0001a0 07 cf 07 3e 09 c4 a9 be c0 e1 0a bf a3 98 d2 3e
       0.13262568 -0.33157375 -0.5425072 0.41132078
0001b0 75 3a 86 3d 1f a7 d3 3e
       0.065541185 0.4133844

linear1.bias f4 [10]
000000 32 56 aa 3e 49 b8 13 3f 09 7b cd 3d e9 73 7b 3d
       0.33268887 0.5770307 0.10033233 0.061389837
000010 94 a7 4a 3f df 3b e7 3e 18 c7 f3 be a6 71 0f 3f
       0.79161954 0.45162866 -0.47612834 0.5603279
000020 9b 2e 25 3f e3 ff ef 3e
       0.6452424 0.46874914

linear2.weight f4 [6, 10]
000000 cf b9 01 3e 59 f4 e7 ba 25 d4 67 3e 7a 85 04 bf
       0.12668537 -0.0017696723 0.2263952 -0.5176617
000010 bd 1a 7f be ef fa ca be 9d a1 00 3f ee 10 8c 3e
       -0.24912544 -0.39644572 0.502466 0.27356666
000020 ae ef 9a 3e 6f fc 0b 3f 68 ed 00 be 90 1b 95 3d
       0.30260986 0.5468206 -0.12590563 0.07280648
000030 72 f9 ec bd 07 7d 86 be 41 70 19 be 85 24 a8 be
       -0.115710154 -0.26267263 -0.14984228 -0.32840362
000040 3d bb 5c be 52 ec fc bd ae e9 ae 3d b3 71 af bc
       -0.215558 -0.12349762 0.085406646 -0.02141652
000050 6b 46 c5 3d a7 13 54 bc 35 28 76 3e 8e b0 c6 be
       0.09632572 -0.012944139 0.24038775 -0.38806576
000060 91 ab 68 be 30 cf d1 be d2 3b a2 3e 6f d1 88 3e
       -0.22721697 -0.40978384 0.31686264 0.26722285
000070 15 ef a8 3e 61 9a b8 3e de 3f 5b be 9b b8 95 bc
       0.32994905 0.36055282 -0.21411082 -0.018276503
000080 4e 03 87 be 8b bc 32 bf 12 bb b5 be f8 3e 41 bc
       -0.2636971 -0.69818944 -0.35494286 -0.011794798
000090 7d 7e d2 bc e7 4e 15 3e 15 31 d1 bd 7b f9 ba be
       -0.02569508 0.1458088 -0.1021444 -0.36518463
0000a0 5c 69 a8 3e c7 0e 1a bf 56 1f ba be 91 36 f0 3e
       0.32892883 -0.601788 -0.36352032 0.4691663
0000b0 81 e9 46 3e ee f1 56 3e f3 b2 6f be 03 10 04 bf
       0.19425012 0.20990726 -0.23408107 -0.5158693
0000c0 f3 be e5 bc b8 11 80 3d e5 16 85 be 80 12 39 3c
       -0.028045153 0.062533796 -0.2599403 0.011295915
0000d0 b9 e8 93 be 7a 3f 57 be 58 b3 5f bd 54 b1 9d be
       -0.2888849 -0.21020308 -0.054614395 -0.30799353
0000e0 86 6c a1 bd d4 9e 7c be e3 50 68 be ac 22 a5 bd
       -0.07882027 -0.24669963 -0.22687106 -0.08063254

linear2.bias f4 [6]
000000 12 bc 2a bc b3 0b 0a 3d 9b 82 39 3d c1 16 67 3e
       -0.010420816 0.033702563 0.04529057 0.22567274
000010 e4 0c 50 bd 76 5b c0 bd
       -0.050793543 -0.09392445

linear3.weight f4 [1, 6]
000000 b9 09 a6 3e db 6a 5e bd 3d 8d ef 3e a7 b7 d2 3e
       0.32429293 -0.054301124 0.46787444 0.4115574
000010 fb 68 44 bf 36 2c c7 be
       -0.7672269 -0.38900918
